model/mnist_model.pth (torch, 180807 bytes, 10 tensors)

conv1.weight f4 [6, 1, 5, 5]
00000000: 0cf9 c3bc 3f2f de3b 28f4 a8bd 5565 8fbe
00000010: 01e0 8b3d a401 163e 1d05 48be 6e58 51be
00000020: 65f0 97bd 8ffd 90be e200 54be 1594 2a3e
00000030: 2b77 8d3d ecd8 223e 1aa5 003c 4980 403d
00000040: 5cda 443e 10d1 a73e 9127 893e f3d4 053c
00000050: ecd8 fb3d 9ff2 1a3e b925 b63e 15f3 053e
00000060: 0573 fb3d 2b18 143e 87c1 9fbd ac93 cdbd
00000070: c451 53bc 1e1a 3d3e abb5 763e 6b89 b03e
00000080: 3cb7 ac3e a023 253e 0737 953d 8125 0e3e
00000090: 183d 3a3e 0f7f 803e b33b 92bd fc9a e43d
000000a0: c407 f43c 46b9 dc3d 67db eb3d 14ba ffbd
000000b0: 0847 afbc a475 48be 801c 23bd bc91 7abe
000000c0: 8c4a debd 477e 53be 22b2 a13e c334 6c3e
000000d0: 3456 1d3e 47dd 87be 0802 c2be 17d6 ab3e
000000e0: 3245 2f3e 7d6e 393d 5e21 9dbe b1c0 b7be
000000f0: fb08 3f3e ec78 b13e 481a 193e a458 c0be
00000100: 4b6b 89bd d0d8 9ebd e168 c13e 1810 aa3c
00000110: 1187 3bbe e054 0ebe 6c71 dc3d 0f63 a33e
00000120: 4487 cb3c f18e 1abe e099 d3bd 8a7b 563d
00000130: 5f90 993e 4f09 8a3e baf4 d73e e441 d73e
00000140: fab5 9e3e 10c6 423e af18 ad3e edb4 b33d
00000150: 83d1 a33e b3aa 8b3d 6d14 12be 348e be3d
00000160: 05b5 5f3d 5641 e63d 5f57 c2be 1120 f9be
00000170: aebc afbe 297e 4dbe 39ab ab3d 3f15 b7be
00000180: 82e6 9abe 356c f0be fb8b 8bbc 0a76 94bd
00000190: aaae fc3c bd56 99bd 09e8 a6be 9e61 e83a
000001a0: 3b9e 8e3d 2679 b2bd 9cbe eabe 7ecc c8be
000001b0: 7937 0b3e 2a3b 053e b4ef f4be 0f6d f4be
000001c0: d8c0 fbbd 6ae8 333d 887b ba3e d52e 03bf
000001d0: f1e2 a1be 7f35 15bc dffa 023e a4f9 d43e
000001e0: 8e95 b7be 7e8f 4fbd 3ae5 643e 786d 7a3e
000001f0: 7ae3 003f dc4e 8fbe bdb2 bbbe 48ee dfbe
00000200: 93aa 76be b3c3 73be 4614 1d3e e8b4 e0be
00000210: 81fa 2ebf f2bd c6be cf3d 9cbe e452 593e
00000220: 502e 9c3e 7240 f23d 2993 babd 4af5 be3d
00000230: f6ec a63e 6dbd 783d 2374 b43e c74f 4d3e
00000240: 67cb 6b3e 35e4 0c3d 5cba 1b3e 08cd c13e
00000250: 739c 993e 3667 583e
-0.023922466 0.0067805345 -0.08249694 -0.28006998 0.06829835 0.14649063 -0.195332 -0.2044389
-0.074188985 -0.2831845 -0.20703462 0.16658051 0.06907495 0.15903062 0.007851863 0.046997342
0.19223922 0.3277669 0.26788 0.008168447 0.12297234 0.15131615 0.35575655 0.1308101
0.122777976 0.14462344 -0.07800584 -0.10037932 -0.012897912 0.18466994 0.24092738 0.34479842
0.33733547 0.16126871 0.07285886 0.13881494 0.18187368 0.25096938 -0.07140293 0.111623734
0.02978886 0.107775256 0.11516457 -0.124866635 -0.021396175 -0.19576126 -0.0398221 -0.24469656
-0.108540624 -0.2065364 0.31581217 0.23067002 0.15364915 -0.2653601 -0.37892175 0.33561775
0.1711624 0.045271385 -0.3068952 -0.358892 0.1865577 0.3466257 0.14951432 -0.37567627
-0.06709918 -0.077561975 0.3777533 0.020759627 -0.18313242 -0.13899565 0.10763821 0.31911513
0.024844773 -0.1509359 -0.10332084 0.05236391 0.2999296 0.26960227 0.421789 0.42042458
0.30998212 0.19020867 0.33807895 0.08774743 0.31995782 0.06819668 -0.14265604 0.09304467
0.054615993 0.112429306 -0.37957284 -0.48657277 -0.3432364 -0.20067658 0.083822675 -0.35758397
-0.30253989 -0.46957555 -0.017034521 -0.07249077 0.030845005 -0.07487247 -0.32598904 0.0017729288
0.06963774 -0.087145135 -0.45848548 -0.39218515 0.1359538 0.1301085 -0.4783913 -0.47739455
-0.122926414 0.04392282 0.36422372 -0.51243335 -0.31618455 -0.009106993 0.12791012 0.4159671
-0.3585629 -0.050673954 0.22353068 0.24455822 0.503471 -0.27989852 -0.36659804 -0.43736482
-0.24088506 -0.23805122 0.15339765 -0.4388802 -0.6835099 -0.38816792 -0.30515906 0.21223027
0.30504084 0.11828698 -0.091101 0.09324129 0.32602662 0.060727526 0.35244855 0.20049964
0.2302681 0.034397323 0.15207809 0.3785174 0.30002174 0.21133122

conv1.bias f4 [6]
00000000: 866e ea3c a64a 25b8 4c2d bdbc b6e3 fe3c
00000010: 8c65 d33d 1e12 213e
0.028617155 -3.9408587e-05 -0.023092888 0.03111444 0.10322103 0.15729567

conv2.weight f4 [16, 6, 5, 5]
00000000: 649a 2abd 4821 3dbd 3a15 453d 13e5 d13c
00000010: 2168 f03c 884e 293c 660e 933d 3a41 cf3d
00000020: 436f b23d 413c 62bc ac7a 413b 6c3c ff3c
00000030: bd59 f1bc 4bf4 8cb8 aa8f be3d 7dc2 f7bd
00000040: b213 0c3d 8d55 67bc 4620 653c fd6d 1cbb
00000050: 35bf c7bd 9415 4abc e40a 0b3d 3991 2abc
00000060: 68a0 12bd 3fd2 bbbc 1630 1fbd 9d52 133c
00000070: 2565 243d fd48 52bd a293 b9bd 144c 17bb
00000080: 7c8d b73c 01a1 4a3d 5a50 793d 62af d93d
00000090: a772 813d 5b9e e83d 4381 8abb c51d c33d
000000a0: 9244 fc3d acc8 ca3c 14cc 5a3d ac31 a33c
000000b0: d5dd f03d 3b1b 04bd 46c1 bfbd 5227 c53c
000000c0: 5244 4d3c 9104 7b3c 414e 383d 7134 ab3d
000000d0: ed95 473d 5eaf 723c 1016 103e bc68 6dbd
000000e0: 085b ac3c 37a4 b73d abf2 0f3e 1225 7d3d
000000f0: 4843 6a3d 00c3 a43d 874d e53d b376 893d
00000100: 9d79 1c3e c7e4 983d 93d3 253e 0dc7 d13d
00000110: f4fd b93c 36ff 83bc c2a3 48bd bd96 c63b
00000120: 7750 183c f671 3dbd d4c2 d03d 9b3c 5dbc
00000130: 8b5c 3bbe 7152 81be dba7 eebd 80d6 06bd
00000140: e320 2dbe dacc 3bbe af72 c2bd 5cec 6bbd
00000150: 4a16 5ebc f935 2cba 571e 1f3d 7222 603d
00000160: 8532 d23d 186b a23d 0982 443e 19ef 443e
00000170: 6b4a aa3d f641 4d3e 5b7b 153e e2d1 99bc
00000180: dedd d93d f986 223e f0fe 043e b339 e3bc
00000190: 472b 9f3b 0bc2 fe3d 217c 673e 505e 163e
000001a0: 8f71 f2bd 1d84 2c3e 3716 ff3d e6e7 083e
000001b0: 6bd7 80bc de68 27be bacc 143d d01e bfbd
000001c0: 4707 a2bd 130f 7abe 20ae 9cbe 4c9f d4bd
000001d0: 99bf 3dbe f503 9dbe 520f f1be c566 15bf
000001e0: 99e0 f73c b068 5abe ae17 9fbe 20a1 1ebe
000001f0: 42fe b1be 5051 4cbe e132 30be c7e8 09be
00000200: 1c7b a4bc b938 7f3d a2a8 30be 6317 26be
00000210: e2b7 85be 3c09 52be af18 583d 7ddf 83bd
00000220: 6b0c 65be d09c aebe 24f2 05bd 83f1 453e
00000230: be1a a5be 23e9 86be 7eaf 293e b9b4 b53e
00000240: 427a 8a3e 3f81 0abe 1181 edbc aebe a73e
00000250: 228a 863e 64b6 a93d c1b0 c03d 676d a63d
00000260: f247 d53d 2333 153e 0183 9a3d af6f 06bd
00000270: 515b 8ebd c055 c6bc bec9 c5bd 434c 4c3c
00000280: 3ce2 3ebe 1e34 61be ab34 17be 39ad 1abe
00000290: 01f5 a7bd 1cb5 7bbd f663 e63c 64f2 97bd
000002a0: 8aff 7fbd af4d 72bd ec11 20bd 7f8e dbbd
000002b0: 05b7 41bd 2fa4 e8bd 8188 b7bd 5a3d 883c
000002c0: d89d 7bbb d53a df3c 0534 cabc 9fc7 cc3b
000002d0: 1860 aa3d e056 ce3a 8703 bb3d 34af 073e
000002e0: 9405 593d d1f5 9fbc c0d0 a73d 7a76 cdbd
000002f0: 9a00 b0bd d198 4e3c 7a29 fbbd 087c d7bd
00000300: 56da e8bd 9af6 11be 7f51 cabc e4b9 5ebd
00000310: 4481 a7bd b822 04bd a0fc 37bd 80c3 fbbc
00000320: b2a8 94bc 4531 483d 250d af3d 19fe ae3d
00000330: 9dfe e93b cf71 243b e4cb ab3d f1d7 c83d
00000340: 5e54 e93d cd02 7f3d 75e5 71bd 227e 6fbd
00000350: 3fc8 b23c e1e7 79bc 723b 8abd da5a a2bd
00000360: 0cfc 53bd d283 30bd ee1c 21bd 7436 c4bd
00000370: 3c60 46bd 84b7 533c b320 22bc 5fb7 b9bc
00000380: ec0d 38bc 4914 21be 9a60 41be 0ba1 74be
00000390: fc67 54be 7755 98bd 06c7 a83c 3a7f 933d
000003a0: 1727 6c3e a704 943e 19c1 4a3e b452 ed3d
000003b0: 1766 753e 76a5 473e 3a7e 203e 1eab 2dbd
000003c0: 00c8 70bd 44f7 9bbc b107 75be 951d 9ebe
000003d0: 88f8 84be bb1a d7bd 3926 87bd e002 723b
000003e0: 77f1 b43d b402 283d e062 67bd 9716 3abc
000003f0: f656 583d 0376 963d 5701 b7bc 7b60 1bbe
-0.041651145 -0.046174318 0.048115946 0.025621926 0.029346528 0.010333665 0.07180481 0.10119863
0.08712628 -0.013808311 0.002952258 0.031156741 -0.029461736 -6.721223e-05 0.093047455 -0.120976426
0.03419847 -0.014119518 0.013984745 -0.002386927 -0.09753267 -0.012334246 0.033945933 -0.0104106
-0.035797507 -0.022927402 -0.038864218 0.0089918645 0.04013552 -0.05133914 -0.09061362 -0.0023086118
0.022406332 0.04946995 0.060867645 0.10629155 0.06320696 0.11358329 -0.004226835 0.095271625
0.12317766 0.024753891 0.05341728 0.019921146 0.11761061 -0.03225253 -0.09363036 0.024066601
0.012528496 0.015320913 0.044996504 0.08359612 0.048726965 0.014812319 0.14070916 -0.05796121
0.0210395 0.08966868 0.14057414 0.06180293 0.05719307 0.08045006 0.11196428 0.06712093
0.15280767 0.07465511 0.1619399 0.10243044 0.022704102 -0.016112905 -0.048984297 0.00606045
0.009296528 -0.04625126 0.101934105 -0.013503219 -0.18297021 -0.2525821 -0.1165311 -0.032919407
-0.16907077 -0.18339863 -0.094945304 -0.057598457 -0.013555119 -0.0006569322 0.038847294 0.05472035
0.10263542 0.07930583 0.1919023 0.19231834 0.08314975 0.20044693 0.14597838 -0.018776838
0.10638021 0.158718 0.12987876 -0.027737474 0.004857454 0.124393545 0.22605945 0.14684415
-0.11838066 0.16847272 0.12455409 0.13369712 -0.01572772 -0.16348597 0.036328055 -0.09332049
-0.07911544 -0.24419813 -0.30601597 -0.10381946 -0.1853012 -0.3066708 -0.47082 -0.5835994
0.030258464 -0.21328998 -0.31072754 -0.15491152 -0.34764296 -0.19952893 -0.17206909 -0.13467704
-0.020078234 0.062309954 -0.17251828 -0.16219859 -0.26116854 -0.20511335 0.052757915 -0.064391114
-0.22368018 -0.34104013 -0.032701626 0.1933041 -0.32246965 -0.26349744 0.16570851 0.35489443
0.270464 -0.13525866 -0.028992208 0.32762665 0.26277262 0.082867414 0.09408713 0.081263356
0.10414113 0.14570288 0.07544518 -0.032821354 -0.06951011 -0.02421081 -0.0965762 0.012469354
-0.18640989 -0.21992537 -0.14766185 -0.15105142 -0.08201028 -0.061452016 0.028123837 -0.07419279
-0.06249956 -0.059156116 -0.03907959 -0.10720538 -0.04729368 -0.113594405 -0.08961583 0.016630817
-0.0038393643 0.027249733 -0.024683008 0.0062493826 0.0831911 0.0015742444 0.09131532 0.13250428
0.052983835 -0.019526394 0.08194113 -0.10032363 -0.08593865 0.012609676 -0.122637704 -0.10521704
-0.11369769 -0.14254227 -0.024697063 -0.054376498 -0.08178952 -0.032259673 -0.044918656 -0.03073287
-0.018146846 0.048875112 0.08547429 0.08544559 0.007140948 0.002509225 0.083884984 0.098068126
0.11393045 0.06225853 -0.059056718 -0.0584699 0.021824 -0.015253038 -0.067496195 -0.07927485
-0.051754043 -0.043094464 -0.03933423 -0.095806986 -0.04843162 0.0129221715 -0.009895491 -0.022670446
-0.011233788 -0.15730394 -0.18884507 -0.23889558 -0.20742792 -0.07438176 0.020602714 0.07202001
0.23061787 0.289098 0.19800223 0.1158804 0.23964725 0.19496712 0.15673152 -0.04239952
-0.058784485 -0.019038804 -0.23928715 -0.30881944 -0.25970864 -0.10503145 -0.06599087 0.0036927983
0.08835118 0.041018203 -0.05649078 -0.011357925 0.052817307 0.07346728 -0.022339506 -0.15173523

conv2.bias f4 [16]
00000000: e642 093e fc4b 6a3d e8f6 d23d 92ac eb3c
00000010: 8a87 383d 7759 4f3d 763a e33d e4d9 aa3d
00000020: 6fd0 263e 40e2 60bc b6f5 213e 332b 513d
00000030: 0f13 14bd cc8c 933d 98cc 3b3d 3c9c 6b3d
0.13404426 0.05720137 0.10301 0.028768811 0.045051135 0.05062243 0.11095135 0.083423406
0.16290449 -0.013725817 0.15816388 0.05106659 -0.03615099 0.07204589 0.045849413 0.057522044

conv3.weight f4 [120, 16, 4, 4]
00000000: c552 71bc c47e 0d3e fa8f 1d3e 8d78 b03c
00000010: 610f 22bb 08e2 07bd 412a 623c f63d 333d
00000020: 3ae1 01be bca1 51bd a99e 683d 9c38 6ebe
00000030: e17d dabd 1acd a4bd 21f4 fabd 94d3 09be
00000040: 92ff c33b 1883 b73d 3630 8b3c 2b55 5c3d
00000050: dcdb a33d e1f5 373d 5cc7 633c 2868 793d
00000060: d07a 903d eafb 07bd a24c 11bc 3482 1a3d
00000070: 6063 dc3b 95e2 8e3d 4367 553c 1989 a9be
00000080: 9ed3 09be 5bbe 44be 7922 abbc 3d28 92bd
00000090: 1d73 a7bd 412f 5bbd d2ee 49bc 1090 faba
000000a0: 5e6c b7bd 988c 19be 7313 41be 5dac 9a3d
000000b0: 59e5 253e c692 4d3c 0b21 1b3e 1d72 413e
000000c0: fb5d a13d 1345 513d 92af 513d 1a1b 013e
000000d0: ecdb 113d 56d7 bfbb c8d4 c33c d111 0d3e
000000e0: 0b2f 3b3d 8e9d 0ebc 7b10 c2bd 006d 84bd
000000f0: 0fb6 973c 4b76 b23c 8726 1ebe fe00 9fbe
00000100: fc61 6bbd 0ab6 0fbd d079 0f3d 313f 8a3d
00000110: 00d1 a8bd d76a 833c 738d d0bc 6c56 16be
00000120: 107d dfbd b8dd f1bd 639a 05be 3f9a f2bc
00000130: af91 d63d ddc5 653e 451b da3d 4bf2 863d
00000140: 407b 96bd cad3 0abd 0a60 533d 1a2f 473c
00000150: 7a47 ff3c 1e07 64bd 2481 03be eefe c13d
00000160: 273d 5e3d e43f 783c 04b3 b9bc 8dd4 203e
00000170: c131 8c3e 84ba a03e 632a 753c 584b 85be
00000180: 4a7b 5b3c af97 703d 4bbb 7fbc a8b6 2dbe
00000190: 1740 1abd 2da4 8e3d 88ce b53b 55f5 d5bd
000001a0: ae33 88bd 4f81 ae3d a5a9 8d3c 5be6 3bbe
000001b0: e432 2cbe 7027 85bd 7e58 883d ddc1 5b3d
000001c0: a313 6f3d 5343 073e cb16 b93c 3c1f c33d
000001d0: 873f 30bd 9088 dd3c 5dde f73d 26a8 103c
000001e0: 3292 b3bd 0232 c3bc 2c72 5fbe ee92 a1be
000001f0: e875 ddbc f2f4 023d 2b93 e53c 7f00 833d
00000200: 2846 ac3c 6c55 6a3d 7451 ba3c 979a 893b
00000210: a9b4 03bd 41d3 a3bc 9d11 293c 27a8 023d
00000220: 8863 2dbd 0f0c 20bc fd0f c93d 0dca 233c
00000230: b264 cd3c 08ff c5bd d77c 86bb 9cd1 2cbd
00000240: bbc6 3ebd 11da d8bd 302e e7bb 7f9b 223e
00000250: 44fc 6bba 9f54 123e fd26 db3d 9c9e 18be
00000260: 58e0 6cbd 562c febc a709 4abe 404a b3bd
00000270: 2ad9 85bd 7830 b3bc b73a f33d 8b44 153d
00000280: fd1c 483d 3f95 a03d d349 113c 87c4 dabc
00000290: 52d5 b2bd cb1a 6c3c 4869 68bc 65c5 c13d
000002a0: 0168 1bbd 3ec4 cb3d b47d ee3c b335 863d
000002b0: 20ab 5bbd a592 23bd 1adb 37bc 2449 55be
000002c0: dec7 64bd 2d41 6a3d 4de4 12bd ecf4 00be
000002d0: 9c70 febc ccc6 f73c 24cb d53c 150a 663b
000002e0: 3a7e 20be a8bd 813c 5685 083d 2698 bfbd
000002f0: 450e 29bc f185 d7bd 29d2 513c 0637 063e
00000300: 0b41 04be d700 58bc 59c3 763d f113 b33d
00000310: f122 2b3d 26e1 aa3d 82ba 2dbc bdb5 40bc
00000320: 4bfa bbbc 20c0 11be c787 bbbc 0009 c33d
00000330: 9f83 683e 3c9e 143e 3eb6 a23d d0a3 84be
00000340: b6d0 2bbe 2e1b 553d 8c5b 0a3e 45e3 c0bd
00000350: dacf c9bd f493 9abc a6ca 6cbd b3ff f33b
00000360: 2b09 60be 9931 f83b 4035 043c f891 a6bd
00000370: 2328 9bbb 6d46 673e cc88 f4bd dcf2 90bd
00000380: df19 de3b dce8 663d 179f 963b 94f0 5fbc
00000390: 8e1c e03c 564d 01bc 9d25 d5bd 078c 1dbd
000003a0: a1f2 50bd 1cf0 ca3c 2ad3 2f3e a50b 363d
000003b0: a35d 163d d038 1dbb 3b38 b23d b2bc 5b3d
000003c0: 5a3f c0bc 87ad 453d 9274 8a3d af37 fd3c
000003d0: ad77 62bd bf0f bfbd 97bf 30bd d54f bfbc
000003e0: 7ce9 a2bd 40ff ffbc adbc 8b3d 8464 1dbd
000003f0: 2e89 013e 2863 32bd ed4d 5abc 3e7f acbd
-0.014729206 0.13817888 0.15386954 0.021541858 -0.0024728405 -0.033174545 0.013804019 0.043760262
-0.12683573 -0.051179633 0.056791935 -0.23263782 -0.10668541 -0.080469325 -0.12253595 -0.13459617
0.005981394 0.08960551 0.016990762 0.05379216 0.08000919 0.044912223 0.013902511 0.060890347
0.070546746 -0.03319923 -0.008868368 0.037721828 0.0067257136 0.06976811 0.013025108 -0.3311241
-0.13459632 -0.1921324 -0.020890461 -0.07136581 -0.08176253 -0.05351186 -0.012325006 -0.001911642
-0.08956216 -0.14995039 -0.18855076 0.07552407 0.1620077 0.012547201 0.15149324 0.18891187
0.078792535 0.051091265 0.051192828 0.12607995 0.035610124 -0.0058545275 0.023905173 0.13776328
0.04569916 -0.008704556 -0.094758 -0.064661026 0.01851943 0.021784922 -0.15444385 -0.31055444
-0.057466492 -0.035085715 0.03502828 0.06750334 -0.082429886 0.016042156 -0.025458073 -0.14681405
-0.10912526 -0.118098676 -0.13047175 -0.029614566 0.10477006 0.2243876 0.106497325 0.065891825
-0.07347727 -0.033893384 0.05160526 0.012157226 0.031162012 -0.05567085 -0.12842232 0.09472452
0.05425754 0.015151951 -0.02266837 0.15706082 0.2738171 0.313923 0.014963719 -0.26034045
0.013396094 0.058738407 -0.015608619 -0.16964209 -0.037658777 0.06964908 0.005548302 -0.10447184
-0.06650482 0.085207574 0.017292807 -0.18349592 -0.16816288 -0.06501663 0.066575035 0.05365168
0.058368336 0.13209276 0.022593876 0.09527442 -0.043029334 0.027042657 0.12102959 0.008829152
-0.08768119 -0.023827557 -0.21820897 -0.3155741 -0.027033761 0.03197188 0.028024277 0.06396579
0.021029547 0.05721037 0.022743918 0.0041993367 -0.032154713 -0.019998195 0.010319141 0.031898644
-0.04233125 -0.0097685 0.09817503 0.009996903 0.02507243 -0.09667784 -0.0041042375 -0.042192087
-0.046576243 -0.10588468 -0.0070550665 0.1587963 -0.0009002129 0.14290093 0.10700796 -0.14904255
-0.05783114 -0.031027 -0.19730245 -0.087543964 -0.065355614 -0.021873698 0.11876433 0.03644232
0.04885577 0.078409664 0.008867699 -0.02670504 -0.08732094 0.014410685 -0.014185257 0.09461478
-0.037940983 0.099495396 0.029112674 0.06553211 -0.053629994 -0.039934773 -0.0112216715 -0.20828682
-0.05585467 0.057191063 -0.035862256 -0.1259343 -0.031059556 0.03024616 0.026097842 0.0035101224
-0.15673152 0.015837505 0.033330284 -0.09355192 -0.0103183435 -0.10523594 0.012806454 0.13106927
-0.12915437 -0.013183794 0.06024489 0.08744038 0.04178137 0.08343725 -0.010603549 -0.01176208
-0.022946497 -0.14233446 -0.022891892 0.09523201 0.2270646 0.14513487 0.07944916 -0.2590623
-0.16778836 0.052027874 0.13511485 -0.09418348 -0.09854098 -0.018869378 -0.057810448 0.007446253
-0.21878497 0.007574272 0.008069336 -0.0813331 -0.0047350093 0.22585459 -0.119401544 -0.07077572
0.0067779864 0.056374416 0.0045966017 -0.013668198 0.027357366 -0.0078919735 -0.10407565 -0.03846362
-0.05101264 0.024772696 0.17170396 0.0444447 0.036710393 -0.0023990162 0.08702131 0.05364675
-0.023467708 0.04826119 0.06760515 0.030910341 -0.055289913 -0.09329175 -0.043151464 -0.023353497
-0.0795469 -0.031249642 0.068230964 -0.038425937 0.12649986 -0.043551594 -0.013324243 -0.08422707

conv3.bias f4 [120]
00000000: aef4 173d 70f5 20be d07d 253e 424e 4eaf
00000010: 5b24 b13d 8aec d2bd 5dda 69b8 f3dc c7bc
00000020: 449e f73d bd57 a23b dab8 1c3e ace2 65bd
00000030: 5aa4 d03c 4504 bebc c153 afa1 0084 12be
00000040: c6c4 c2bd 6505 66bc e1e3 9cbc d916 1d3e
00000050: 3cee c63d c6ca c626 11f2 3f91 6568 f03d
00000060: 63a9 7d3d 1f4d 1da2 0670 443e 9f4d 95a8
00000070: 81c3 f1bc 1cba 463e 9787 2cbd 8e8b 173e
00000080: 26a6 85b3 2936 ebbb edc3 5b3d fe4c 843c
00000090: e7ba 9cbd bbdf fe3d 03d9 00be a076 463e
000000a0: 42b0 75bd 145d ddbb 0039 873e e92f 603d
000000b0: 06ea 25b5 1b89 cabc 90c0 a03d a6d9 443e
000000c0: 9612 f4bc 4018 ae3c fedb edbd 7837 d03c
000000d0: 1e7a 9fab bab9 a03d 12f8 6fbc 4178 e8bb
000000e0: c88c 353b 2c5a 9d3c 1719 8e39 0574 9abc
000000f0: 1dc2 2abb 61bf 8d3d c68b 783e e83b 87bb
00000100: cb21 483e ce44 b3bc 119b eb3c e579 8fbd
00000110: 8b87 08bd 71b1 d93d 53a7 563d 3526 c43d
00000120: c30f 33bc 2445 fd3c f6f9 4a3d 62ab 2498
00000130: ef5b 01bc 8e03 c43d 8059 103e 3e0a dfbc
00000140: daa6 da3d cf1f a3bd a9ac 8fbd d534 61bc
00000150: a45c 39bd 0720 bfbd 842a 9d3d ef52 9ebd
00000160: 8d0d 27bd 9387 153e 039e ba3d 408f b73c
00000170: 5a7c 033e e550 a73d b06c 32b8 6d9a 95bd
00000180: 425e 093e e225 35bc 6f15 3ebd 2eff e53d
00000190: 06b4 7a3e 9ec1 0fb8 6362 c2bd d561 ff3b
000001a0: 4b58 2bbc ccc3 783e 4972 8c3e fe0c 27b9
000001b0: 1ae1 ee3d b42d a93d 3b76 ad3d 8b86 223e
000001c0: 696f 05bd 0338 dabd d5ec cfbd 7b8d aabc
000001d0: 8a62 ae3d d5eb a73c 7f5f ad3c e326 1f3d
0.03709858 -0.15718627 0.16161275 -1.8763394e-10 0.086495124 -0.102990225 -5.5754896e-05 -0.024397349
0.12090734 0.004954307 0.1530489 -0.056124374 0.025468994 -0.023195395 -1.1880631e-18 -0.14308167
-0.09510188 -0.014039372 -0.01915163 0.15340747 0.09713408 1.3793972e-15 -1.5141836e-28 0.11738662
0.061929118 -2.1318295e-18 0.19183359 -1.6575986e-14 -0.029512169 0.19406933 -0.042121496 0.1479933
-6.223517e-08 -0.0071780873 0.053653646 0.016149994 -0.07652836 0.12445017 -0.12582783 0.1938119
-0.059982546 -0.0067554805 0.26410675 0.05473319 -6.180784e-07 -0.02472358 0.078492284 0.19223651
-0.029794019 0.021251798 -0.11614226 0.025417075 -1.1331524e-12 0.078479245 -0.014646547 -0.0070944135
0.002770232 0.019208036 0.00027103044 -0.01885415 -0.0026055642 0.06921268 0.2427207 -0.0041270144
0.19544141 -0.021883395 0.028760465 -0.070056714 -0.03333239 0.106295474 0.052405667 0.095776
-0.010929051 0.030916758 0.049554788 -2.128303e-24 -0.007895454 0.095709905 0.14096642 -0.027226564
0.10676356 -0.079650514 -0.07015354 -0.013745506 -0.045254365 -0.093322806 0.07674125 -0.07730662
-0.040784407 0.14602499 0.091121696 0.022407174 0.12840405 0.08169726 -4.253973e-05 -0.07304845
0.13414863 -0.011056395 -0.04640716 0.11230312 0.24482736 -3.4274177e-05 -0.09491422 0.007793645
-0.010458062 0.2429344 0.27430943 -0.00015931201 0.116640285 0.0826067 0.08469816 0.15871637
-0.032576952 -0.10655215 -0.10152594 -0.020819416 0.085148886 0.020498196 0.0211637 0.038855445

fully_connected1.weight f4 [84, 120]
00000000: f3b8 ca3d 3d52 8dbd 2432 d23d 31c5 bcb4
00000010: b090 0a3d 6243 49be 0d1c 71bb 85bd bbba
00000020: 0415 5fbd 206d b9bd 798a b53d 7aff a33c
00000030: db4b bf3c fcf0 883c 9777 7037 3d56 603d
00000040: 9f3e e33c 739c fb3d 042c 1c3c 90b6 a63d
00000050: 4810 803d 9c25 20b2 c2c4 0000 2c7a ab3c
00000060: 3b61 a33d 2ada 0024 4c32 643e 7bbc 642b
00000070: 9503 a7bc ed4e 9b3d 63fa 4e3b b9c1 113e
00000080: 139f 2138 6b27 163e e76e 29bd e159 653e
00000090: cdd7 89bc acf9 233e c926 5abd ad5e dbbd
000000a0: f10f eebd 9637 51bb 5624 3e3e cfd1 82bd
000000b0: b87d 0c39 8fb7 6ebe 9c99 903c e0c7 bcbd
000000c0: 5a5c ef3d 5c53 5dbd a241 26be de61 c83d
000000d0: c3e4 a0b6 c455 1f3e 6519 ca3d 531c 55bc
000000e0: f47f 65bc 25f3 b93d cc3c df3c 1ee4 f93d
000000f0: d022 0c3c 58d9 593d 1ab6 5b3d 9a36 9fbb
00000100: d03b 313e acd3 143c 9620 95bd 6f50 42bd
00000110: 9960 243e 6935 0e3e fa0e e1bd 8ebd b0bb
00000120: 7221 4bbd 33d7 bb3d 6eda 7fbc d69e 27ae
00000130: 989f 533d 368d 053e 3912 d93d 0726 3dbd
00000140: 40a1 da3d 40f6 d4bd b2ac 98bd c4e9 e8bd
00000150: 0ea8 b8bb 530e 99be d22e 2c3e 5bd7 5bbd
00000160: efac 6c3c 7272 813c 4e0b 173d 3608 00be
00000170: 541c 1cbc baa0 6e3c 9920 20ba 7cf7 29be
00000180: 2eb9 333e 7ed5 57bb 0a89 993d fa6f 233e
00000190: 35f6 9fbd f78d 21b5 5fa9 093d b9a7 0d3d
000001a0: 5f02 c63c 3740 233d ea68 a3bd 111d 7ab4
000001b0: a838 16be 865a b53d 1930 583e a3ed 8b3d
000001c0: 3f84 92bd 20c8 00bd 1c31 d4bd 77aa 2dbc
000001d0: 3aa2 843e e3cd a63e e7cb 2f3e ff6e c1bd
000001e0: 4f7d 0cba b1b2 8bb8 b1b0 9bb6 8dbd 0100
000001f0: f04f 23b7 1fca 6139 8173 0180 bebd 0080
00000200: 8783 49b7 7178 07b8 f364 9d39 688b c0b5
00000210: ff8a 57b8 f51d 28b7 2da7 0300 022e 12ba
00000220: f64e 30b9 2387 57bb a913 0300 1236 d1ba
00000230: 3834 25bb df9e 0100 233f 0480 59ca 87b9
00000240: 7ccd 21b8 1505 0180 9ec4 b434 b2d8 0100
00000250: d34f 0080 e5b4 08ba 9460 9eb8 8287 03bb
00000260: 03cc 0100 86cb 15ba 3c0d a83a f358 9bb7
00000270: e18e a7b9 0bc0 97b9 fe23 31b8 1e9e 9d3a
00000280: d885 5239 1c2b 4dbb a0e2 173a 9217 183a
00000290: cb61 0080 f902 6e36 fac9 aa37 04ec 7bb8
000002a0: 9c02 9db8 a3ef e0b8 0d37 5db8 b3d3 1fb7
000002b0: e8e9 0000 0b2a b6b8 7587 37ba 0c57 0300
000002c0: 9dbc 17b8 d49a f435 830a 90b4 077a cf35
000002d0: b1da 0180 9c92 e0b8 42fd e7b8 1d9c 0100
000002e0: a50c 0437 ce43 c2af 2217 21bb e7fc 1cbb
000002f0: 3138 6fba ad3d 43b9 6e5b a0b9 4b01 84ba
00000300: fcf2 20b8 36d3 2eb8 d5e7 aeba 8437 0080
00000310: f7ed 71bb 44e8 7cb9 a805 60ba 4b6d 1ebb
00000320: 9f8a 93b9 bc00 68b1 29fb 90b9 7b16 13ba
00000330: e28d 0280 6cf8 47ba 41f5 ebb8 106f 77b9
00000340: 4713 0000 e066 1abb 04a9 f336 42d6 56b9
00000350: 3537 1fb9 3ba8 96b7 2f9b 0100 3adc f1b9
00000360: 7dc5 86b6 1edc f0b9 9d00 fdb9 fb3b 5837
00000370: 8136 d339 96cd 0180 6884 39b8 5214 823a
00000380: e9a4 0200 e54c 0fb5 3b73 c839 6109 0080
00000390: b3cf 54b8 26fb c1b8 271d bcba 8b23 10bb
000003a0: aa19 60b5 2d0e 2bb7 7054 9637 ebac 0080
000003b0: d8de 81b8 06e3 21ba 1239 f739 234e e6b9
000003c0: a689 d8bc 119d 07be 2ea0 7ebd d6e4 89b6
000003d0: 0142 a53a ded2 093e 165a 6b3b e234 dd3c
000003e0: 0c6d 003e a8b4 5d3e ae8e 0fbe cf62 263e
000003f0: e4a1 4bbe 60fd 953d 6ec1 cd38 2045 42bc
0.098985575 -0.06900451 0.1026347 -3.5161204e-07 0.03382939 -0.19654611 -0.0036790401 -0.0014323449
-0.0544634 -0.09054017 0.08864302 0.020019282 0.0233516 0.016716473 1.4332959e-05 0.054769743
0.027739821 0.122857 0.0095319785 0.0814029 0.062531054 -9.321777e-09 7.0583e-41 0.02093228
0.079775296 2.7940368e-17 0.22284812 8.126344e-13 -0.02038745 0.07583413 0.0031582348 0.14234056
3.853354e-05 0.14663474 -0.04136553 0.22397567 -0.016826535 0.16013211 -0.053259645 -0.10711417
-0.11624134 -0.0031924 0.18568549 -0.06387674 0.00013398274 -0.2331221 0.017651372 -0.09217811
0.116875365 -0.054034576 -0.16235974 0.09784292 -4.795003e-06 0.1556006 0.09868125 -0.013007241
-0.014007557 0.09079579 0.02725067 0.12201713 0.008553222 0.05318579 0.053640462 -0.004858804
0.17307973 0.00908367 -0.07281606 -0.04743999 0.16052474 0.13887562 -0.10989185 -0.0053936904
-0.049592443 0.09171905 -0.015616043 -3.811248e-11 0.051665872 0.13042149 0.10599179 -0.046178844
0.10675287 -0.10398531 -0.07454814 -0.11372712 -0.005635268 -0.2989374 0.16814736 -0.053672176
0.014445527 0.015801642 0.036876015 -0.12503132 -0.009528238 0.014564687 -0.0006108373 -0.16598314
0.17551109 -0.0032933648 0.07496841 0.15960684 -0.07810632 -6.018376e-07 0.03360879 0.03458378
0.024171053 0.039856162 -0.07978995 -2.3293639e-07 -0.1467005 0.088551566 0.21112098 0.06832435
-0.0715413 -0.031440854 -0.10360929 -0.010599724 0.2590502 0.32578954 0.17167626 -0.09444999
-0.00053592486 -6.6613204e-05 -4.6399296e-06 1.59834e-40 -9.734169e-06 0.00021532968 -1.3327e-40 -6.8067e-41
-1.2011157e-05 -3.2298678e-05 0.00030020587 -1.4345687e-06 -5.1389445e-05 -1.0020555e-05 3.35478e-40 -0.00055763137
-0.00016814083 -0.0032886944 2.82559e-40 -0.0015961549 -0.0025208127 1.48828e-40 -3.89991e-40 -0.00025899967
-3.8576763e-05 -9.3659e-41 3.367067e-07 1.69571e-40 -2.8636e-41 -0.00052149437 -7.552016e-05 -0.0020069783
1.65021e-40 -0.0005714226 0.0012821327 -1.851886e-05 -0.00031959175 -0.00028944048 -4.223361e-05 0.0012025272
0.00020077021 -0.0031306213 0.00057939626 0.0005801852 -3.5082e-41 3.5466494e-06 2.0359632e-05 -6.006287e-05
-7.4868294e-05 -0.00010725788 -5.2741776e-05 -9.526429e-06 8.391e-41 -8.6862674e-05 -0.00070010807 3.06733e-40
-3.6176865e-05 1.8224478e-06 -2.6829738e-07 1.5458216e-06 -1.70287e-40 -0.000107084605 -0.00011062111 1.47838e-40
7.870757e-06 -3.5336573e-10 -0.0024580439 -0.0023954452 -0.00091254996 -0.00018619625 -0.000305857 -0.0010071186
-3.837327e-05 -4.168154e-05 -0.0013344238 -1.9915e-41 -0.003691552 -0.00024119118 -0.0008545765 -0.002417403
-0.00028141306 -3.376086e-09 -0.0002765295 -0.0005610955 -2.34569e-40 -0.00076282653 -0.00011251355 -0.0002359713
6.915e-42 -0.0023559853 7.2616403e-06 -0.00020488448 -0.00015183988 -1.7959732e-05 1.47505e-40 -0.00046131184
-4.016502e-06 -0.00045940367 -0.00048256377 1.2888569e-05 0.00040285665 -1.65586e-40 -4.423075e-05 0.0009924269
2.4283e-40 -5.338355e-07 0.00038232826 -3.365e-42 -5.0738174e-05 -9.249737e-05 -0.001435195 -0.0021993842
-8.348385e-07 -1.0195695e-05 1.7920713e-05 -6.2031e-41 -6.192707e-05 -0.0006175492 0.00047154032 -0.00043927235
-0.026432823 -0.1324351 -0.062164478 -4.109558e-06 0.0012608172 0.13459346 0.003591185 0.027002756
0.12541598 0.21650946 -0.14019272 0.1624863 -0.19885975 0.07323718 9.811191e-05 -0.011857301

fully_connected1.bias f4 [84]
00000000: c4ef 513e 2b34 dcb8 8fe1 25bd d8ca 0a3e
00000010: 144c 23bd f32a c53d e7f5 5f8e 1e48 60b0
00000020: 09cd 433b dff4 55bd 4c7c 4c3e 1ab9 2fbd
00000030: 00a6 55ac 075d 063d 6012 26bc ecac 733d
00000040: 7f3f 8739 22d3 31af fc46 6bbc 3b5f d0bd
00000050: c812 0000 4031 0ebc 0092 0c3d 70fb 723e
00000060: dbb4 ddbd 8dae bf3d 3182 56bb 7016 12a9
00000070: 1ee1 16ae 7820 dfbb e135 543e 13a0 6a3d
00000080: 413e c2bc 8d27 b7bc f95f 0000 95a4 0000
00000090: d6eb 8bbd 6040 b097 f3d1 3e3e 4b7c c3bd
000000a0: 8865 0d3e c505 1f3e aa1e 243e fc12 9db2
000000b0: 3578 843c 7f85 87bd f0df 3a3e fb77 a93d
000000c0: 5c32 573e cc88 3b3e 1354 8abd 6f38 2e3e
000000d0: d77d 0e04 b2cd 9b3c ed01 143c acb9 383e
000000e0: 6a0d ab3d c011 973d ce2a dc3c fef4 073d
000000f0: e6bf ebbc c37e 6b3d 2221 81bc c092 d93c
00000100: bf5b e63c df2c 413e 0bee 1f3e 49b1 df3b
00000110: 2099 57bc b523 ab3d 04f8 433e bfc2 ab94
00000120: 7500 8b3e 8bb1 643e a864 0bbd 9247 81bc
00000130: e100 353e f13b 083e ff59 5dbd 4c73 1f9c
00000140: ae09 803c 05c6 04b2 444c 49bd c300 0000
0.2050162 -0.000105001345 -0.040498313 0.13553941 -0.039867476 0.096273325 -2.760527e-30 -8.159321e-10
0.002987685 -0.05223548 0.1996929 -0.042901136 -3.036127e-12 0.03280356 -0.010136217 0.059491083
0.00025796515 -1.6173066e-10 -0.014360186 -0.10174414 6.737e-42 -0.008678734 0.034318924 0.23728728
-0.10825511 0.09359465 -0.0032731409 -3.2437974e-14 -3.4305996e-11 -0.0068092905 0.20723678 0.057281565
-0.023711326 -0.022357726 3.4429e-41 5.9041e-41 -0.068320915 -1.1389984e-24 0.18634777 -0.095451914
0.13808262 0.15529545 0.16027322 -1.8285839e-08 0.0161706 -0.06617259 0.18249488 0.082748376
0.21015304 0.18313903 -0.06754317 0.17013715 1.6749803e-36 0.019018982 0.009033662 0.18039578
0.08352168 0.073764324 0.02687588 0.033192627 -0.028778028 0.057493936 -0.01576287 0.026559234
0.02811992 0.18864773 0.1561815 0.006826554 -0.013159066 0.0835642 0.19137579 -1.7343401e-26
0.27148786 0.22333352 -0.03403154 -0.015781198 0.17676117 0.13304116 -0.054040905 -5.2757705e-22
0.015629616 -7.728436e-09 -0.049145 2.73e-43

fully_connected2.weight f4 [10, 84]
00000000: 595d 8fbd 8732 f939 df80 46be 0723 85bd
00000010: 25a7 71bd a4ab 15bd 98ed 0280 03af 87ba
00000020: 4bdb 5b3e c030 443e 74fd 1f3d 2815 cb3c
00000030: 898e 0000 527e 073e c477 293a 4e92 463e
00000040: 013d d63b b2d2 3f34 7753 0a3d 50bd ab3d
00000050: 279b 1937 acbd 56be d895 94bd 0a9e 20be
00000060: a50a 07be ab0b 27be f918 6dbb 47cf 0000
00000070: a933 0080 be5b 2c3e 253b a53c 1b10 8ebe
00000080: 8ab6 013c 6912 19be a626 46b8 2199 0000
00000090: b1cf 2ebe 855f adba b778 ee3d fa45 2d3e
000000a0: 9f1f a73d 6736 a53d 8f05 38bd 5fe8 0080
000000b0: ecc4 353e 9e2d 913c bb34 103e dac7 38be
000000c0: 06d2 5dbe f6ef 59be 75d1 f7bd 80e0 24be
000000d0: 2b2d 2139 fab9 403e faa8 b4be 54a6 2ebd
000000e0: ef3a 793e aa5e d4bd 47fd 513c d2a2 60bd
000000f0: 3346 653c 7bef 30be e352 86be 7ea3 05be
00000100: bb3d 0ebe 5c5d e2bd 3f45 2bbe 8115 873d
00000110: 66b3 753c 2aa0 adbd 307f 2dbd 54ee 0080
00000120: 6e63 74be 33ac 05be a55a 233e f122 a9bd
00000130: 93b4 da3d 71bd 3bbe bb7d b7bc a936 f22e
00000140: d142 08be f156 f0ba 0bc2 21be 7187 b9ba
00000150: 3a5f abbe 9784 65bc 7370 553d 8dc8 a93d
00000160: f2c6 713d 611b fc3c e62e 0000 a1a6 7abb
00000170: 63b6 cb3b 889e 733e 1a70 55be 15e0 b63b
00000180: 925f 0080 4ad7 8abe 559b 043d 1956 c43d
00000190: 1bd3 6bbb a3c1 7f38 6ee0 b43c 63f1 493e
000001a0: c611 f7b3 cdf7 13be 4b1e 22be b33f aa3d
000001b0: cbaf 043e 39d4 9f3d c827 02bc 3e98 0000
000001c0: 3af1 87b7 8132 9d3e ee96 0e3e ab1a 243e
000001d0: 7547 18bc efed f9bb 60a9 aa37 dcd3 49b3
000001e0: d318 553e c1e2 803a aa6a 58be bde6 c83b
000001f0: 5287 a2bb 1e2d 10be e768 39be 58ad 0000
00000200: e388 55be 941e 353e d509 ff3d 5034 643d
00000210: f937 6a3d 3a30 4ebe a98f b1bd 622e bdbd
00000220: 049d 28b8 091b 06be 5870 f23d d091 58be
00000230: 7d80 77be 688e 703d 443c 4ebe 6966 04be
00000240: 368d 133c 3f9b 183e f832 dd3d 868f 1cbe
00000250: e657 233e c217 503d d409 b83d 91c3 febd
00000260: 77df fab7 329f e0bc 5951 b2be 210b 0080
00000270: 393e 58be feed 10be 9ab6 9cbe db11 0cbd
00000280: 393c 32be 2d31 c4bd b410 9cbe f8c0 4eb6
00000290: d2cb 39be 0037 eaba 3994 cd3c b942 3738
000002a0: 4a13 e9bc 10e2 8ebb 48d3 81bc 700b 4fbe
000002b0: 7991 36bd 093f 263e cc1b 0180 5dc3 9aba
000002c0: f323 583c 91f5 f53c b56f 33be 8904 853d
000002d0: d7af 0000 48ec babc 33e7 58bc 0d9f 1fbe
000002e0: 2df6 9d3b 996b 1439 42f2 bc3b 110f 0c3d
000002f0: 1d05 25b8 a793 0cbe 7e2b b0bd fb28 2d3d
00000300: 60a4 c6bd dcb5 b1bc d6ed b63c 8932 0000
00000310: 09b7 c835 7446 1b3d 4629 ab3d e03f 8e3d
00000320: 1453 e03c b63a 003d cfdc ecb9 f0d7 5533
00000330: b43d 063d f532 37bb da48 49bc 61bb 2a3e
00000340: dfae 163e d3d8 c4bd 2e5d b43d ffe5 0000
00000350: c601 b9bc 4a50 323e 7365 71be 639f 73be
00000360: 8e8e 06bd b4d5 20bd 0a3e bd3c 1c66 10be
00000370: 0e9a b83a 194c 1f3e 644f d9bc 3cd4 8f3d
00000380: 4613 523e 3a7b 34be 1572 653e a2b7 ae3d
00000390: 16ed 963c 6886 b33d 5c1a fa3d 6a49 6e3c
000003a0: 7c5a d33d c8e3 70be 37da dabd fa56 39be
000003b0: 30a9 a1bc 97fb 0cbe 25f4 023e 1e72 0080
000003c0: a4da d4bc e4fe 623e 79e8 b9bd 8e54 25be
000003d0: 5623 6abe e013 013e a2c2 1b3d 33f0 002d
000003e0: 0191 3a3e afc0 1bbb 87f3 b73d e667 2aba
000003f0: d7f6 ce3d 8c79 cabc 0bd1 fd3d c609 82be
-0.070002265 0.00047530627 -0.19385098 -0.065008216 -0.058997292 -0.036540642 -2.68904e-40 -0.001035184
0.21470372 0.19159222 0.03906007 0.024790362 5.1132e-41 0.13231781 0.0006464685 0.19391748
0.006538034 1.7864912e-07 0.033771005 0.08385718 9.155635e-06 -0.20970792 -0.07255143 -0.15685287
-0.13187654 -0.16313045 -0.0036178215 7.4357e-41 -1.8532e-41 0.16831872 0.020169804 -0.27746662
0.007917056 -0.14948429 -4.7242873e-05 5.4932e-41 -0.17071415 -0.001322732 0.11644118 0.16921225
0.08160328 0.08067017 -0.044927176 -8.3359e-41 0.17750901 0.017721947 0.14082615 -0.18044987
-0.21662149 -0.21282944 -0.12100498 -0.16101265 0.00015370983 0.18820944 -0.3528517 -0.04263909
0.24338888 -0.10369618 0.012816734 -0.054842778 0.013993788 -0.17278855 -0.26235113 -0.13050649
-0.13890736 -0.11052963 -0.16725634 0.065958984 0.014996385 -0.084778145 -0.042357624 -8.5496e-41
-0.23866054 -0.1305397 0.15952547 -0.08258618 0.10678973 -0.18333985 -0.02239882 1.10145955e-10
-0.13306738 -0.0018336457 -0.15796678 -0.0014154745 -0.3347109 -0.014008663 0.052109193 0.08290205
0.05902762 0.030774774 1.6824e-41 -0.0038246291 0.0062168106 0.23790944 -0.20843545 0.005580912
-3.4284e-41 -0.27117378 0.0323747 0.09586734 -0.0035983983 6.0977076e-05 0.022079673 0.19720988
-1.1505067e-07 -0.14449997 -0.15831868 0.08312931 0.12957685 0.0780415 -0.007944055 5.4614e-41
-1.6205584e-05 0.30702594 0.13924763 0.16025798 -0.00929438 -0.007627241 2.034445e-05 -4.6991644e-08
0.20810251 0.0009833203 -0.21134439 0.006131022 -0.004959979 -0.14079711 -0.18106423 6.2184e-41
-0.20853 0.17687446 0.12453047 0.05571395 0.057182286 -0.20135584 -0.08669979 -0.092373624
-4.0200553e-05 -0.1309625 0.11837834 -0.21149373 -0.24170108 0.05872956 -0.20140177 -0.12929691
0.009005835 0.14902972 0.10800737 -0.15289125 0.159515 0.050803907 0.089862496 -0.12439645
-2.9906381e-05 -0.02741966 -0.34827688 -3.992e-42 -0.21117486 -0.14153287 -0.30608064 -0.034196716
-0.17405786 -0.09579692 -0.30481493 -3.0808715e-06 -0.18144158 -0.0017869174 0.025095092 4.369274e-05
-0.02845158 -0.004360445 -0.015847817 -0.20219207 -0.044572327 0.16234984 -1.01807e-40 -0.001180749
0.013192165 0.030024322 -0.17523082 0.06495006 6.308e-41 -0.022817746 -0.013238716 -0.15588017
0.004820606 0.00014154463 0.005766184 0.034194056 -3.9343828e-05 -0.137282 -0.086020455 0.04227541
-0.09699321 -0.021693163 0.022330206 1.8129e-41 1.4954431e-06 0.037908986 0.08357482 0.06945777
0.027383365 0.03130599 -0.00045177943 4.978932e-08 0.03277369 -0.0027953957 -0.012285436 0.16673042
0.14715146 -0.096116684 0.08806835 8.2507e-41 -0.022583853 0.1741344 -0.23573856 -0.2379127
-0.032850794 -0.039266303 0.023100872 -0.14101452 0.0014083998 0.15556373 -0.026527114 0.07022902
0.20515165 -0.17625132 0.224068 0.08531119 0.018423598 0.0876587 0.12212059 0.01454387
0.10319993 -0.23524392 -0.106861524 -0.18099585 -0.019733995 -0.13767849 0.12788446 -4.0938e-41
-0.025983162 0.22167546 -0.09077544 -0.16145536 -0.22865042 0.12605238 0.038027413 7.3292926e-12
0.18219377 -0.0023765971 0.08981996 -0.00065004674 0.10105675 -0.024716161 0.123933874 -0.25398082

fully_connected2.bias f4 [10]
00000000: e66b b7bd 66e5 4cbd b3ee 0ebd 742d 233d
00000010: c472 34bd 8665 13bb 8adc c4bd 9d95 1abe
00000020: eb13 6e3e 3650 f73d
-0.08956127 -0.05002346 -0.03489561 0.03983827 -0.04405476 -0.0022490933 -0.09612377 -0.15096135
0.23249786 0.12075846
